research/arxiv_papers/#I9W2UO/trained_model.pth (torch, 3392 bytes, 3 tensors)

fc1.weight f4 [64, 3]
00000000: 1610 d5bd fed1 f83e 6b3c 063f 313b eabe
00000010: b644 b8be 07a1 213e a9d7 c6be 9999 85be
00000020: 7ebf ff3e 65c4 1ebe 6bb7 9dbe 06a4 813e
00000030: a113 133f a1f1 bebd 5052 253e d796 a2be
00000040: b0c2 c5bd dd6a d8be 4958 b43e d216 523e
00000050: 6fe8 da3e 7aea c83e b61a 7a3e 607d 53be
00000060: 6f87 a83e 771f 633e 8ce2 1cbe d855 e6be
00000070: 923b 17be d940 5abe 2daa f73e 6be7 883e
00000080: 55b3 0f3f 3caf 27be 82ec 42be 6c79 c33d
00000090: 31c7 043f 4e63 c7bc 07f0 1fbf 29c6 f3bd
000000a0: 0240 b23e ac77 8dbe 78b8 8dbe 3255 d13e
000000b0: 9342 62be 33ea 133f aa90 b43e 4a4f 18bd
000000c0: 701f 8ebe 68c4 04bf da4d a6bd 31f0 83be
000000d0: a1b6 67be a58c b9be 2085 d33e d101 25be
000000e0: cbaa b4be a7eb 6abe dc09 083f 9993 c03e
000000f0: d0d5 acbe 8054 1b3e 0ab2 383d 9089 39be
00000100: 32b9 06bf 103d 663e 5364 6b3e 4543 f83e
00000110: 4260 e43e e265 40be 1d0a f5be a420 b83e
00000120: 39d2 a6be 00c2 d0be f675 72be cfdd b4be
00000130: 090c f5bd 7264 013f ab24 11be 8d84 883c
00000140: 11f2 6f3e 9b1a bb3d 05a4 27bd b2a8 3b3e
00000150: 2b2a b4be d0f1 c13e 6f53 8b3e 409c 05bc
00000160: 10be 0a3d a022 d53c 2a47 0f3f 534b 01bf
00000170: 9d2c 513e ddf4 2fbe c0ab d13e 0ca3 053f
00000180: cd43 b5bc f72c 9fbe 991d e33e c209 06bf
00000190: d1bd 683e 19b1 163f a620 f93e 348d 80be
000001a0: 2724 d2be 3396 6e3e 55bf e93e c9c8 d1be
000001b0: d821 333e df9a 803e ea60 ac3e bffd 99be
000001c0: ee3e e93d 756d 023e 0126 01bf d2d0 6c3d
000001d0: 27d3 ef3e ac1d 05bf a331 003f c3c1 b8bc
000001e0: 4a30 edbe 97eb 033f 4fa9 ee3c e0f9 8e3c
000001f0: a45d fcbe fd2b fdbe d0a3 b63e ab62 03bd
00000200: ebf6 10bf 7bcc 75be b55e 89be a5c2 803e
00000210: 69a5 81be d4bd 19be 8e1f bcbd f348 c23e
00000220: 4636 0e3e e16b d5be f609 f1be 5773 6d3e
00000230: 66ef 01bc 9b30 8e3e 503f 09be 6b5e 03bf
00000240: eb25 dfbe 357f 173e 5e66 cabe 8620 cbbe
00000250: 31ba a53d 8dcf 433e f613 f63e 369a 00be
00000260: 6c90 d93d 214b 8fbe 5925 cd3e eeba c23d
00000270: cc29 dabe c777 30bd 848a 083f 2298 ad3e
00000280: 0c34 2f3e 936c 4fbe 6738 9a3d 1c2c ebbe
00000290: b03b b4be 9dbb e9be 5b7b ac3c c290 593e
000002a0: aeef 6b3e 7893 2f3c 43dc e4be 0cde c8be
000002b0: 9a43 8e3c 2731 cbbd b0d2 80be 3f29 ce3e
000002c0: ddcf eabe 72f1 523e a9bf 003f da27 a03e
000002d0: 8af9 19be d6b5 ba3e 91a7 ddbe 22d8 afbe
000002e0: 01dd 1cbf c559 03bf 1975 cbbe 64c1 5f3e
000002f0: 059a 1dbe 3a6f 283e f1ff 383e e7d8 6e3e
-0.10403459 0.4859771 0.5243594 -0.45748284 -0.35989922 0.15784083 -0.3883641 -0.26093748
0.49950784 -0.15504606 -0.30804 0.25320452 0.57451826 -0.09323431 0.16144681 -0.31755707
-0.09656274 -0.4226903 0.35223606 0.20516518 0.42755458 0.3924139 0.24424252 -0.20653296
0.32915828 0.22179972 -0.15320796 -0.4498737 -0.14768818 -0.213138 0.4837202 0.26739058
0.56133014 -0.1637544 -0.19035533 0.09544644 0.5186644 -0.024339344 -0.6247563 -0.119030304
0.3481446 -0.27630365 -0.276798 0.4088531 -0.22095709 0.57779235 0.3526662 -0.03718499
-0.2775836 -0.5186219 -0.08120318 -0.2576919 -0.22628261 -0.36240116 0.41312504 -0.16113974
-0.35286555 -0.22941457 0.53140044 0.37612608 -0.33756876 0.15168953 0.045091666 -0.18118882
-0.52626336 0.22484231 0.2298749 0.48488823 0.4460469 -0.18788865 -0.47859278 0.35962403
-0.32582262 -0.4077301 -0.23677811 -0.35325477 -0.11965186 0.5054389 -0.14174144 0.016664768
0.23432185 0.09135934 -0.040927906 0.18326071 -0.35188422 0.378798 0.27212092 -0.008154929
0.033872664 0.026017487 0.5596796 -0.5050556 0.20427175 -0.17183252 0.40951347 0.52201915
-0.022127056 -0.31088993 0.4435852 -0.5235864 0.22728659 0.5886398 0.4865772 -0.2510773
-0.41043207 0.23299484 0.45653787 -0.409735 0.17493379 0.25118157 0.3366769 -0.30076405
0.11388956 0.12737067 -0.50448614 0.057816334 0.46840784 -0.519984 0.5007574 -0.02255333
-0.46325904 0.51531357 0.029133467 0.017453134 -0.49290192 -0.49447623 0.35671854 -0.03207652
-0.56626767 -0.24003784 -0.26830068 0.25148502 -0.2532151 -0.1501382 -0.09185706 0.3794628
0.13887891 -0.41683868 -0.47077912 0.2318853 -0.007930612 0.27771458 -0.13403058 -0.51315945
-0.43583617 0.1479462 -0.39531225 -0.3967325 0.08092154 0.19122143 0.48062104 -0.12558827
0.106232494 -0.27987006 0.40067557 0.0950831 -0.42610013 -0.04308298 0.5333636 0.3390513
0.17109698 -0.20256262 0.07530289 -0.4593209 -0.35201788 -0.4565095 0.021054914 0.21246627
0.2304065 0.010716312 -0.44699296 -0.39231908 0.01736622 -0.099214844 -0.25160742 0.40265843
-0.45861712 0.20599917 0.5029245 0.31280404 -0.15036598 0.36466855 -0.43291906 -0.34344584
-0.61274725 -0.5130885 -0.39737776 0.21851116 -0.15390785 0.1644868 0.18066384 0.23324929

fc1.bias f4 [64]
00000000: 47c7 073f 33de 1a3f 9dfe 833e 6dbc 3bbe
00000010: 047e ac3e 5a65 df3e 24d1 03bf 1957 e73e
00000020: bf78 fe3e 1970 6cbe 2c00 6fbe 5e57 79be
00000030: 0654 f4be 345b df3e 19f7 53bc bb8d 9cbe
00000040: 31ba 0bbf d457 6dbe 1e4f 0e3f 42bc 413e
00000050: c93c 07bf b66f 063e 14bb ca3d cad1 08bf
00000060: 9ae5 e53b 3304 043f e95f bd3e dbc4 0cbf
00000070: 2ef4 d4be 9606 19be 2e5e 09bf f571 fabe
00000080: 92c2 8b3e 93a7 853d d623 003e 735f 81be
00000090: c4e3 43be dc0c 1b3b 46d0 f3be 1bbf 9b3e
000000a0: 5c10 733e 1aa2 033f 8f9c fdbe 7c38 2b3d
000000b0: 6352 183f 9fd6 dabe 9324 d3bd 6044 3dbe
000000c0: d13e 403e b419 18bf ba96 cc3e 64af ce3e
000000d0: eefc 913e a55b ca3e 0be4 d83e eb92 c23e
000000e0: 68f6 21be 9836 b03e 8057 cf3e 9dc7 a4be
000000f0: 8b20 8f3e c5d0 9dbc 9d98 08bf f140 16bf
0.5303845 0.604953 0.25780192 -0.18333597 0.33689892 0.43632013 -0.51491 0.45183638
0.49701497 -0.23089637 -0.2333991 -0.24349734 -0.47720355 0.4362427 -0.012937331 -0.30576882
-0.5458098 -0.23178035 0.55589473 0.18919471 -0.52827126 0.13128552 0.098989636 -0.5344511
0.007015896 0.5156891 0.36987236 -0.5498788 -0.41592544 -0.14943919 -0.5365933 -0.48915067
0.27296883 0.06526103 0.1251367 -0.25268134 -0.19129854 0.0023658788 -0.47619838 0.3041924
0.2373671 0.5141922 -0.49533507 0.041801915 0.5950071 -0.42741868 -0.1030971 -0.18483114
0.18773963 -0.5941422 0.39958745 0.40368187 0.28513283 0.39523044 0.42361483 0.38002715
-0.15816653 0.34416652 0.40496445 -0.32183543 0.27954516 -0.019264588 -0.5335787 -0.5869284

fc2.weight f4 [1, 64]
00000000: db7b bf3d d5d1 0e3e 904f 443d a556 053e
00000010: 2668 293d 8069 de3d 39e6 7dbd 61c2 ccbc
00000020: da16 7bbd 92d7 d03d 1e8c 5b3d 7cd2 1fbc
00000030: 06a5 dbbd 3337 0b3d 27dc 833b ce91 cf3d
00000040: 3b17 cabd 5dff afbd c57b 143e d3a6 5bbd
00000050: 3018 9dbc 40a9 66bd f888 023e e967 fd3c
00000060: b2ac dabd c4e3 37bd 8960 94bd cb63 33bd
00000070: 0668 13bd 8085 a33b 09bd 8d3c 069d 9e3d
00000080: 111a 16bd f55a fc3d ee8e 9a3d d22c 283d
00000090: baa4 923d abaf 6e3d 133e e23d 1a35 ccbd
000000a0: bd7b a6bc c802 c23d 2b04 5bbd c17a 19bd
000000b0: 0d29 793d dddd 65bc 2670 cbbd 4f4a c93c
000000c0: 5fa5 833d 6932 8fbd b633 543d 540b 14bd
000000d0: afa1 97bc 907b 1ebb d553 b43c 7e52 af3d
000000e0: 33da 85bd 3dcd 013d e6d6 213d 6c7d 7abd
000000f0: 1459 9c3d 1209 dabd 5ee9 843d 1150 a2bd
0.093497954 0.13947232 0.04792744 0.13021334 0.04135909 0.10859966 -0.061987136 -0.02499503
-0.06130109 0.10197367 0.053600423 -0.009754773 -0.10724835 0.03398819 0.004024047 0.10135232
-0.09867712 -0.085936286 0.1450034 -0.053625893 -0.019176573 -0.056313753 0.12747562 0.030933337
-0.1067747 -0.04489495 -0.07244975 -0.043796342 -0.035987876 0.0049902797 0.017302053 0.077447936
-0.036645953 0.12322036 0.07546793 0.04105837 0.07160325 0.058273 0.11046996 -0.09971066
-0.020322675 0.09473187 -0.05347077 -0.037470583 0.060830165 -0.014029947 -0.099335 0.024571566
0.064280264 -0.06992037 0.051807128 -0.036143616 -0.018509714 -0.0024182536 0.02201263 0.08560656
-0.06535759 0.03168987 0.039511584 -0.061154768 0.07634178 -0.10646261 0.06489824 -0.07925428
