research/xidian/FADA/net.onnx (onnx, 199949 bytes, 10 tensors)

0.conv.0.weight f4 [6, 1, 5, 5]
-0.0286172 0.008794876 0.095584385 0.13397191 0.11024903 0.023479354 0.1801623 0.2984887
0.10039357 -0.08020178 0.10215314 0.3396783 0.20490211 -0.18521062 -0.35542035 0.13437083
0.2632074 0.064091176 -0.2917909 -0.4567521 0.19082658 0.14104186 -0.1114411 -0.35843006
-0.39875114 -0.025525773 0.22704081 0.24556552 0.059252396 -0.12129197 0.04093407 0.22161925
0.39069134 0.36095396 0.019741789 -0.1963247 -0.16143127 0.056452528 0.28333753 0.09845893
-0.37629005 -0.2612949 -0.05494365 0.09412541 0.09581763 -0.31383446 -0.18458346 -0.12705901
-0.06596064 0.03861735 -0.33150688 -0.2573667 -0.1415169 -0.015317247 -0.0059885643 -0.18938494
0.055126015 0.21711342 0.15312529 -0.11512619 0.10494604 0.21465927 0.3341906 0.12509117
-0.17394368 0.13232102 -0.03587184 0.008567011 0.10429861 -0.11315051 -0.031222975 -0.1838998
0.050207753 0.051211897 -0.11281839 -0.40503007 -0.38493246 -0.24635628 0.0766276 0.27063724
-0.4384869 -0.29089454 -0.109836884 0.22386412 0.32086992 -0.35553077 -0.17258216 0.03930408
0.28513983 0.27677926 -0.28064522 -0.10911544 0.10015947 0.3024186 0.1986452 -0.14438483
-0.023213185 0.094514705 0.21348329 0.16964023 0.050218936 -0.21475144 -0.46316472 -0.49745134
-0.3510782 0.13653623 0.19914423 0.11413398 -0.099609636 -0.17586187 0.10573215 0.4493076
0.47995636 0.29580012 0.025352526 -0.15152091 -0.059043504 0.120496266 0.22266532 0.11536415
-0.22345352 -0.20126694 -0.054912668 0.047959134 0.109655514 -0.15225284 -0.0747627 0.00017251157
0.048060007 0.020843526 0.15369919 0.2824337 0.2875485 0.30348495 0.16127731 0.22094671
0.19447593 0.11568775 0.12083341 0.1366052 -0.13634479 -0.21162093 -0.25150627 -0.16134132
0.06091512 -0.44913748 -0.50086206 -0.31633687 -0.13199471 0.03618048
00000000: 9e6e eabc 6218 103c bfc1 c33d ef2f 093e
00000010: 3eca e13d c657 c03c 777c 383e 83d3 983e
00000020: 259b cd3d d540 a4bd aa35 d13d 50ea ad3e
00000030: dcd1 513e daa7 3dbe a8f9 b5be 8298 093e
00000040: 1fc3 863e 3c42 833d 9e65 95be 69db e9be
00000050: 0b68 433e 476d 103e 3b3b e4bd 2584 b7be
00000060: 1c29 ccbe 6d1b d1bc 637d 683e 8775 7b3e
00000070: a4b2 723d ed67 f8bd 7caa 273d 28f0 623e
00000080: b208 c83e f5ce b83e 88b9 a13c 5809 49be
00000090: 3d4e 25be c43a 673d 9e11 913e d6a4 c93d
000000a0: 17a9 c0be 72c8 85be 980c 61bd d3c4 c03d
000000b0: 093c c43d e9ae a0be 7203 3dbe c21b 02be
000000c0: 5f16 87bd 3a2d 1e3d 45bb a9be 91c5 83be
000000d0: cee9 10be 31f5 7abc b83b c4bb 20ee 41be
000000e0: d1cb 613d fb52 5e3e e0cc 1c3e 48c7 ebbd
000000f0: f3ed d63d a4cf 5b3e 081b ab3e e617 003e
00000100: 4b1e 32be 297f 073e 5aee 12bd a65c 0c3c
00000110: 829a d53d 74bb e7bd 53c7 ffbc 3b50 3cbe
00000120: a5a6 4d3d 91c3 513d 540d e7bd 1a60 cfbe
00000130: de15 c5be d244 7cbe eeee 9c3d f790 8a3e
00000140: 5b81 e0be 21f0 94be 29f2 e0bd a33c 653e
00000150: 1049 a43e 2108 b6be 61b9 30be 51fd 203d
00000160: d9fd 913e 03b6 8d3e bbb0 8fbe ea77 dfbd
00000170: 6920 cd3d 9cd6 9a3e a669 4b3e 9ed9 13be
00000180: 9429 bebc ed90 c13d 5d9b 5a3e 2bb6 2d3e
00000190: 5fb2 4d3d cde7 5bbe ed23 edbe f1b1 febe
000001a0: 86c0 b3be 27d0 0b3e 77ec 4b3e 13bf e93d
000001b0: 2300 ccbd 2215 34be 198a d83d a50b e63e
000001c0: d7bc f53e 1d73 973e 1ab0 cf3c 4c28 1bbe
000001d0: 9ad7 71bd bfc6 f63d 6102 643e 0a44 ec3d
000001e0: 00d1 64be ec18 4ebe 1bec 60bd cc70 443d
000001f0: 1293 e03d 2be8 1bbe 301d 99bd 39e4 3439
00000200: 92da 443d 0bc0 aa3c 5263 1d3e 269b 903e
00000210: 8f39 933e 6162 9b3e e125 253e db3f 623e
00000220: b324 473e b3ed ec3d 8277 f73d 3ce2 0b3e
00000230: f89d 0bbe 28b3 58be 6ec5 80be a936 25be
00000240: 2282 793d 59f5 e5be 7f38 00bf e8f6 a1be
00000250: 9f29 07be fc31 143d

0.conv.3.weight f4 [16, 6, 5, 5]
0.045421436 0.02419085 -0.089968055 -0.078193195 0.010075434 -0.017447272 -0.14985815 -0.2412939
-0.23268133 -0.14376494 -0.0846372 -0.1241447 -0.22562061 -0.29014897 -0.26087028 0.06021335
0.11115229 0.08760287 -0.04440669 -0.20499271 0.2060798 0.3295659 0.2433827 0.093103744
-0.00960772 -0.12046994 0.117847234 0.14801686 0.10711852 0.1217943 -0.083965 -0.10073473
0.09855987 0.248138 0.28423953 -0.035140336 -0.2734033 -0.32869238 -0.2415956 -0.0011337927
-0.047704685 -0.02886244 -0.046370126 -0.15647505 -0.2625755 0.09880518 0.11263867 0.16371028
0.13479726 0.055630267 -0.051882125 -0.097761095 -0.030835217 -0.041995805 0.06941097 -0.14273657
-0.3150041 -0.4146899 -0.3317403 -0.18501304 -0.02469158 -0.033535082 -0.1349402 -0.27228916
-0.25868216 0.1327296 0.067576006 -0.006195371 -0.021477597 -0.10749566 0.26172152 0.22442059
0.10674538 0.12868276 0.14506887 -0.19667804 -0.03237117 0.04094496 0.20501727 0.25796512
-0.3467959 -0.32716942 -0.2603177 -0.11529732 0.031163061 -0.15556973 -0.11890688 -0.23660079
-0.123749614 -0.13099104 0.074641414 0.004452997 0.019511174 -0.02800855 0.0029472795 0.03313529
-0.08501604 -0.10087055 -0.022779645 -0.124558456 -0.08872087 -0.1105509 -0.13776962 0.019182332
-0.013749963 -0.016864132 -0.1536107 -0.60767365 -0.34085745 -0.1409247 0.1844698 0.21519418
0.13287337 -0.01687149 -0.37783167 0.11724452 0.15662797 0.22855063 0.18026605 0.11456016
0.29933965 0.2549962 0.24733117 0.2231099 0.35232592 0.017067766 0.14997658 0.06499116
0.086630024 0.248134 -0.106948055 -0.14995492 -0.093865484 0.10134551 0.22398664 -0.09817962
-0.29421562 -0.56122315 -0.4598962 -0.18652907 -0.16655582 -0.1724299 -0.16665517 -0.27014083
-0.3079814 0.1095231 0.13207112 0.107710026 0.07719444 0.019790554 -0.2505346 -0.3323776
-0.16240355 -0.04661395 -0.16238016 -0.030657766 -0.252924 -0.10781029 0.043358896 -0.023707274
-0.11533663 -0.3337978 -0.040001012 0.1683179 0.025167549 -0.42797595 -0.13164294 0.12895514
0.138742 -0.07341388 -0.2520174 0.07593939 0.11577638 -0.04612328 -0.15403895 -0.13775603
0.13306819 0.19358486 -0.25170723 -0.34726152 -0.056841724 0.04514422 0.3325454 0.21912746
-0.2216885 0.08220889 -0.004914624 0.20002282 0.010586239 -0.10187212 0.017647399 -0.12358481
-0.10930545 -0.049924903 -0.051805697 -0.15153348 -0.110952765 -0.19159676 -0.0895447 -0.12007249
-0.052085355 0.11970884 0.19092911 0.07317934 -0.1683192 0.10763414 0.034525283 0.18857445
0.07114845 -0.23273538 -0.051958274 -0.06567049 0.06657246 0.0121342065 -0.14740257 -0.21571434
-0.041232776 0.08157024 0.034999587 -0.100688025 0.040653843 0.15657873 0.10569461 -0.047985096
-0.023341766 0.055797674 0.046292208 -0.12815785 -0.23388681 -0.3014598 0.13603646 -0.05675156
-0.006089779 -0.22049484 -0.33568874 -0.08344714 -0.10727179 0.054260574 -0.031431757 -0.36689606
-0.14872806 0.013005935 0.11244543 0.15039767 -0.15307291 0.14335182 0.1366667 0.045113057
0.12219115 -0.046847075 -0.09721588 0.09966153 0.35222518 0.20094275 -0.030388007 -0.00030166708
00000000: d40b 3a3d e42b c63c 2c41 b8bd c123 a0bd
00000010: 6f13 253c 95ed 8ebc 6a74 19be c015 77be
00000020: 0444 6ebe 1e37 13be 4556 adbd 943f febd
00000030: 1709 67be 688e 94be ca90 85be 46a2 763d
00000040: d0a3 e33d 2269 b33d cae3 35bd 9ce9 51be
00000050: 9506 533e ddbc a83e 5139 793e 2dad be3d
00000060: b369 1dbc f2b8 f6bd e459 f13d bb91 173e
00000070: f460 db3d 4a6f f93d d8f5 abbd 034e cebd
00000080: c2d9 c93d e317 7e3e d887 913e 50ef 0fbd
00000090: 84fb 8bbe 5e4a a8be d664 77be c59b 94ba
000000a0: fd65 43bd ec70 ecbc 9aee 3dbd ff3a 20be
000000b0: 4c70 86be 5f5a ca3d 1aaf e63d aba3 273e
000000c0: 4b08 0a3e 90dc 633d 5a82 54bd f836 c8bd
000000d0: 239a fcbc cb03 2cbd 5727 8e3d 8929 12be
000000e0: 3848 a1be 3c52 d4be ddd9 a9be 0f74 3dbe
000000f0: ff45 cabc 155c 09bd c42d 0abe 7c69 8bbe
00000100: fd71 84be 45ea 073e 4a65 8a3d 8a02 cbbb
00000110: c9f1 afbc af26 dcbd 5d00 863e 83ce 653e
00000120: 529d da3d 6ac5 033e ef8c 143e f865 49be
00000130: a297 04bd e7b5 273d 0cf0 513e 0114 843e
00000140: 3b8f b1be c082 a7be 5d48 85be 0021 ecbd
00000150: ad49 ff3c ac4d 1fbe 7385 f3bd 7a47 72be
00000160: 7070 fdbd 8422 06be 99dd 983d 72ea 913b
00000170: e6d5 9f3c 3072 e5bc 2527 413b dfb8 073d
00000180: e41c aebd 3895 cebd 619c babc 8118 ffbd
00000190: 4ab3 b5bd 8368 e2bd 7b13 0dbe 4424 9d3c
000001a0: 8647 61bc a626 8abc 204c 1dbe 8090 1bbf
000001b0: de84 aebe 914e 10be a7e5 3c3e dd5b 5c3e
000001c0: f50f 083e 1436 8abc 2773 c1be e51d f03d
000001d0: 1563 203e 2d09 6a3e aa97 383e 849e ea3d
000001e0: 0c43 993e dd8e 823e 6244 7d3e ec76 643e
000001f0: 1064 b43e b3d1 8b3c 7693 193e 161a 853d
00000200: 156b b13d d716 7e3e 9507 dbbd c88d 19be
00000210: 8c3c c0bd 3c8e cf3d c15c 653e 6612 c9bd
00000220: 6ea3 96be 52ac 0fbf 8477 ebbe 7a01 3fbe
00000230: 9c8d 2abe 7791 30be a7a7 2abe e64f 8abe
00000240: bdaf 9dbe a64d e03d a73d 073e 1397 dc3d
00000250: 1e18 9e3d cd1f a23c 1246 80be 662d aabe
00000260: 1e4d 26be 45ee 3ebd fc46 26be ff25 fbbc
00000270: 417f 81be a4cb dcbd 1999 313d c235 c2bc
00000280: 9c35 ecbd 8ce7 aabe 1ad8 23bd 875b 2c3e
00000290: 2d2c ce3c aa1f dbbe 68cd 06be d10c 043e
000002a0: 6212 0e3e 045a 96bd 6d08 81be 1c86 9b3d
000002b0: 2b1c ed3d c4eb 3cbd 63bc 1dbe eb0f 0dbe
000002c0: 0743 083e 1c3b 463e c5df 80be 43cc b1be
000002d0: ded2 68bd 25e9 383d 6443 aa3e f362 603e
000002e0: 4f02 63be 225d a83d db0a a1bb c8d2 4c3e
000002f0: e871 2d3c 54a2 d0bd 4791 903c 081a fdbd
00000300: 89db dfbd 0e7e 4cbd 3632 54bd 982b 1bbe
00000310: 343b e3bd f131 44be 3663 b7bd 91e8 f5bd
00000320: 7457 55bd e929 f53d ec82 433e 0ddf 953d
00000330: de5b 2cbe 4a6f dc3d 626a 0d3d a919 413e
00000340: 47b6 913d 2f52 6ebe 33d2 54bd 407e 86bd
00000350: 2457 883d 8dce 463c b3f0 16be 38e4 5cbe
00000360: b3e3 28bd 4c0e a73d ba5b 0f3d 8635 cebd
00000370: a584 263d 2d56 203e 6a76 d83d 058c 44bd
00000380: 3b37 bfbc 1a8c 643d e69c 3d3d d03b 03be
00000390: 0680 6fbe f058 9abe 244d 0b3e 5374 68bd
000003a0: c58c c7bb 66c9 61be 65df abbe 56e6 aabd
000003b0: 50b1 dbbd 5640 5e3d 96be 00bd cdd9 bbbe
000003c0: 2b4c 18be d816 553c ca49 e63d d901 1a3e
000003d0: 25bf 1cbe d2ca 123e 5bf2 0b3e 78c8 383d
000003e0: 5b3f fa3d b8e2 3fbd 1f19 c7bd 581b cc3d
000003f0: dc56 b43e f0c3 4d3e 45f0 f8bc 1229 9eb9

0.fc.0.weight f4 [120, 256]
-0.07275621 0.09578274 0.08726858 -0.087770626 0.111267805 0.10448851 0.052827083 -0.15935524
-0.2627327 0.011719582 0.05823535 -0.049733847 -0.10324729 -0.099640734 -0.17662184 -0.0423978
-0.011758001 0.05765386 -0.12003421 0.070576005 -0.08201816 -0.09879902 -0.06628801 0.08296783
0.094543345 0.057861734 -0.07667222 -0.24733302 -0.049479485 0.11383026 0.043740958 -0.060108177
-0.38316005 0.045597676 0.13709044 0.09264625 -0.13903192 -0.09548529 -0.020516263 0.17131744
-0.10748888 -0.13967425 -0.019939076 0.048225135 0.11524712 -0.11271539 -0.02674755 0.02524379
-0.041729294 -0.15137665 -0.03496307 -0.1376142 0.09793002 0.0325963 -0.08719143 -0.011339818
0.09592564 -0.076402366 -0.15033515 0.049881216 -0.03875665 -0.030593077 -0.002449899 0.048602268
0.13027419 -0.024589606 -0.04064982 0.042080823 -0.06574208 -0.049529437 0.03925022 0.009069525
-0.07215792 0.115153916 0.057389803 -0.14842829 0.020280404 0.08089415 0.008933587 -0.20537034
0.14016062 0.010892505 -0.08802381 -0.1443103 -0.006409753 -0.25248176 -0.09597283 -0.22305794
-0.019025369 -0.016994225 -0.0803481 -0.22466029 -0.074431375 0.10579754 0.0066548986 -0.05937962
0.058044575 0.115570486 0.047701344 -0.20356183 0.022038665 -0.0034479194 -0.004663206 0.030919958
0.0066820066 0.09271332 -0.07018493 -0.23763415 0.057894744 0.06689889 0.08070665 0.016412493
-0.19276075 -0.042016435 0.07272849 0.081503436 0.07928838 0.06724177 0.038708232 -0.014702057
0.12753811 -0.16604972 -0.021139674 0.119696125 -0.16306807 -0.19630013 -0.096172825 -0.09559737
-0.06711222 -0.23778334 0.021081053 -0.097362556 -0.06103457 0.04217315 -0.031749435 -0.23259398
0.122109935 0.014479454 0.008032449 -0.18394797 0.009815643 -0.07375652 -0.11932259 -0.09611748
0.124758296 0.18404226 0.09611191 0.09564258 0.08000153 0.014282874 -0.14093132 -0.007227727
-0.039943554 -0.013742998 -0.0024888807 0.05837515 0.050086495 -0.077524155 -0.03156401 0.022971204
-0.007542804 -0.15279025 0.0538558 0.040974908 0.09003719 0.08353552 0.081385426 -0.07310024
0.015315887 -0.07683109 0.051586274 -0.013797612 -0.20655598 -0.3431842 -0.09419343 -0.07761
0.08922567 0.113165826 -0.024866868 0.04840443 0.18829364 0.023761788 -0.15640819 -0.029496333
0.07384461 0.051078495 0.00947752 0.11335862 -0.14039265 -0.07073059 -0.04860397 0.086717285
0.17865698 -0.01952824 0.011344135 -0.037226316 0.12452747 0.023549732 -0.043792807 -0.013732416
0.03639293 0.13649055 0.0413804 0.08447983 -0.09017701 -0.17335 -0.08088462 -0.032917336
0.10175614 0.0351475 -0.046150167 -0.055936616 0.104313344 -0.107938506 0.041137587 -0.07643491
-0.086968936 -0.13063774 -0.053609483 -0.07412306 -0.04847723 -0.019520566 0.0579059 -0.08101996
-0.074380375 -0.042096976 0.013669775 0.1423601 -0.037126172 -0.13286217 -0.09249412 0.18514688
-0.123654276 -0.13310897 0.06262966 0.06276274 0.03309971 0.061641607 0.0031822796 -0.012203151
-0.012059255 0.015520394 -0.015809411 0.029411541 -0.09891737 -0.07263623 -0.009575997 -0.03812418
-0.1014911 0.03392699 -0.06296859 -0.08954821 -0.0019465098 0.07343245 -0.039392717 -0.07419787
00000000: 3501 95bd be29 c43d dfb9 b23d 16c1 b3bd
00000010: 60e0 e33d 12fe d53d 3661 583d 052e 23be
00000020: e784 86be 7d03 403c 3188 6e3d b8b5 4bbd
00000030: 5173 d3bd 7110 ccbd 5bdc 34be 51a9 2dbd
00000040: a1a4 40bc 7426 6c3d 7fd4 f5bd 278a 903d
00000050: 23f9 a7bd 2457 cabd 02c2 87bd 0aeb a93d
00000060: f19f c13d 6d00 6d3d 5306 9dbd de44 7dbe
00000070: 00ab 4abd d71f e93d b829 333d fe33 76bd
00000080: 8e2d c4be a1c4 3a3d 7061 0c3e 51bd bd3d
00000090: 625e 0ebe cb8d c3bd b911 a8bc d76d 2f3e
000000a0: 2123 dcbd c406 0fbe 4657 a3bc b887 453d
000000b0: af06 ec3d 54d7 e6bd ae1d dbbc 11cc ce3c
000000c0: 56ec 2abd 7b02 1bbe 7035 0fbd bdea 0cbe
000000d0: 898f c83d b383 053d 6c91 b2bd a5ca 39bc
000000e0: a974 c43d d878 9cbd 75f1 19be 3f50 4c3d
000000f0: 4bbf 1ebd 559e fabc 7c8e 20bb 2c13 473d
00000100: 9966 053e 2470 c9bc 6d80 26bd f15c 2c3d
00000110: c9a3 86bd 61df 4abd d7c4 203d 5898 143c
00000120: 88c7 93bd d1d5 eb3d 9211 6b3d 96fd 17be
00000130: 1723 a63c d5ab a53d 2e5e 123c 9a4c 52be
00000140: 4486 0f3e 7a76 323c d445 b4bd 14c6 13be
00000150: e808 d2bb 4a45 81be 678d c4bd 4d69 64be
00000160: 17db 9bbc 7937 8bbc 8b8d a4bd 590d 66be
00000170: 7a6f 98bd 61ac d83d 5611 da3b 0b38 73bd
00000180: 26c0 6d3d 38b0 ec3d 7c62 433d 8372 50be
00000190: 6e8a b43c 7df6 61bb cfcd 98bb da4b fd3c
000001a0: bcf4 da3b 7be0 bd3d 1ebd 8fbd 5e56 73be
000001b0: 0a23 6d3d 4902 893d 8749 a53d 7e73 863c
000001c0: 1363 45be 6d19 2cbd adf2 943d 46eb a63d
000001d0: f261 a23d 0eb6 893d 868c 1e3d e5e0 70bc
000001e0: 5a99 023e f008 2abe 1c2d adbc 3e23 f53d
000001f0: 51fb 26be e702 49be 42f6 c4bd 8ec8 c3bd
00000200: 2272 89bd 7a7d 73be 2cb2 ac3c 0566 c7bd
00000210: 63ff 79bd c1bd 2c3d b20b 02bd 1e2d 6ebe
00000220: c614 fa3d 3b3b 6d3c 889a 033c db5c 3cbe
00000230: cad1 203c a90d 97bd 675f f4bd 3ed9 c4bd
00000240: 4781 ff3d 9375 3c3e 52d6 c43d 42e0 c33d
00000250: d8d7 a33d b702 6a3c 4d50 10be 92d6 ecbb
00000260: da9b 23bd 502a 61bc 7d1c 23bb c81a 6f3d
00000270: 7f27 4d3d fcc4 9ebd 4349 01bd 1b2e bc3c
00000280: a029 f7bb 0c75 1cbe e697 5c3d 4ed5 273d
00000290: 6b65 b83d ac14 ab3d 67ad a63d 94b5 95bd
000002a0: 7cef 7a3c 9e59 9dbd 214c 533d 610f 62bc
000002b0: 6983 53be d7b5 afbe 7ce8 c0bd fef1 9ebd
000002c0: f3bb b63d 7cc3 e73d 9ab5 cbbc b943 463d
000002d0: 0cd0 403e 15a8 c23c 7829 20be 4ba2 f1bc
000002e0: d83b 973d af37 513d 9a47 1b3c 9028 e83d
000002f0: 17c3 0fbe 33db 90bd f514 47bd d598 b13d
00000300: dbf1 363e b0f9 9fbc c0dc 393c 9f7a 18bd
00000310: 4208 ff3d 5eeb c03c 1660 33bd edfd 60bc
00000320: c110 153d 2ec4 0b3e 7f7e 293d c303 ad3d
00000330: b9ae b8bd aa82 31be d6a6 a5bd 54d4 06bd
00000340: 8665 d03d d3f6 0f3d f507 3dbd cb1d 65bd
00000350: 3ca2 d53d dd0e ddbd e37f 283d e889 9cbd
00000360: c51c b2bd e6c5 05be 9e95 5bbd d5cd 97bd
00000370: 0f90 46bd 98e9 9fbc bd2e 6d3d cbed a5bd
00000380: bd54 98bd e16d 2cbd 31f7 5f3c d9c6 113e
00000390: 9d11 18bd 050d 08be 8f6d bdbd 2597 3d3e
000003a0: 743e fdbd b84d 08be fb43 803d c089 803d
000003b0: 9093 073d e97b 7c3d cb8d 503b baef 47bc
000003c0: 2e94 45bc 4049 7e3c bd82 81bc 79f0 f03c
000003d0: 3195 cabd 4ec2 94bd a4e4 1cbc 1a28 1cbd
000003e0: 91da cfbd 07f7 0a3d adf5 80bd 0d65 b7bd
000003f0: 0822 ffba c163 963d 425a 21bd 0ef5 97bd

0.fc.0.bias f4 [120]
0.031860042 -0.041041777 0.001031829 0.045440845 0.015663706 -0.12841418 0.095915094 -0.0790282
-0.07025548 0.051545404 -0.012112435 -0.012001278 0.085786395 -0.005940582 0.039652087 -0.023825876
-0.023794854 -0.01444987 -0.009357944 -0.067893445 0.15539952 -0.0074161263 0.061320912 0.14569315
0.18284234 -0.0014676112 0.10618646 -0.122740865 -0.01020403 -0.1570356 -0.16188376 0.027316073
0.06380027 0.011665581 -0.12957318 -0.12324196 0.17066337 -0.0077028745 0.03078421 0.0981606
-0.0605272 -0.059904847 0.112788476 -0.0045019905 -0.028811518 -0.09351853 0.01748506 -0.08316687
0.017781775 0.055222183 -0.09619741 -0.0117077725 -0.012846484 -0.02599611 0.04527682 -0.015328333
-0.025417903 -0.10786734 -0.010992968 -0.01786981 -0.027421368 -0.09773679 -0.043241102 -0.066236116
-0.061026104 0.3531502 -0.040596653 -0.067729704 -0.10583963 -0.005575633 0.107858576 0.02176268
0.040426563 0.026167974 0.04646005 0.18234758 0.12316305 0.0868508 0.002911617 0.14615196
-0.033971496 -0.16189548 -0.082014054 -0.14600284 -0.017624684 -0.116722226 -0.009230581 0.0076875556
-0.05174235 0.05326411 -0.048875634 0.10468875 0.008078999 -0.01855011 0.024542706 -0.057209034
-0.030898623 -0.019720484 0.010261115 0.046938367 -0.042790655 -0.0071001383 -0.0817793 -0.044312995
0.24051611 0.044054307 -0.07842437 -0.016189164 -0.16799176 -0.103988186 0.15976305 -0.0031278022
-0.0059972834 0.048469394 0.018410029 0.0052480544 0.1129217 -0.082481086 -0.21459751 -0.03008997
00000000: ad7f 023d 6c1b 28bd 703e 873a 2e20 3a3d
00000010: 2c51 803c 027f 03be 226f c43d 89d9 a1bd
00000020: 1be2 8fbd 4621 533d 3c73 46bc 02a1 44bc
00000030: c7b0 af3d 37a9 c2bb 3a6a 223d 7c2e c3bc
00000040: 6ded c2bc 26bf 6cbc 1052 19bc b80b 8bbd
00000050: 0d21 1f3e fa02 f3bb a32b 7b3d 9630 153e
00000060: 063b 3b3e dc5c c0ba 4978 d93d 905f fbbd
00000070: ce2e 27bc f1cd 20be dbc4 25be f5c5 df3c
00000080: b7a9 823d fe20 3f3c d5ae 04be 4866 fcbd
00000090: 61c2 2e3e 6568 fcbb 2b2f fc3c 6d08 c93d
000000a0: 5feb 77bd c95e 75bd a5fd e63d 6f85 93bb
000000b0: 2206 ecbc a586 bfbd d43c 8f3c 6453 aabd
000000c0: 16ab 913c a830 623d 2603 c5bd f5d1 3fbc
000000d0: 0f7a 52bc cbf5 d4bc 3074 393d b023 7bbc
000000e0: 3539 d0bc 8de9 dcbd da1b 34bc b563 92bc
000000f0: c7a2 e0bc 3a2a c8bd 951d 31bd cda6 87bd
00000100: 82f6 79bd 1ad0 b43e ad48 26bd dfb5 8abd
00000110: 73c2 d8bd cdb3 b6bb f5e4 dc3d a647 b23c
00000120: 5396 253d 385e d63c e54c 3e3d 53b9 3a3e
00000130: e93c fc3d d5de b13d d4d0 3e3b dca8 153e
00000140: b225 0bbd eec7 25be fcf6 a7bd c581 15be
00000150: a461 90bc 100c efbd dd3b 17bc e4e7 fb3b
00000160: c9ef 53bd 782b 5a3d d131 48bd 0e67 d63d
00000170: c75d 043c 66f6 97bc c90d c93c 0554 6abd
00000180: 1c1f fdbc da8c a1bc 3c1e 283c 7242 403d
00000190: 4145 2fbd 47a8 e8bb e87b a7bd 8b81 35bd
000001a0: db49 763e 4a72 343d f59c a0bd 239f 84bc
000001b0: 0806 2cbe c2f7 d4bd ed98 233e d0fb 4cbb
000001c0: dc84 c4bb d887 463d a1d0 963c dff7 ab3b
000001d0: 7e43 e73d d8eb a8bd 73bf 5bbe 3e7f f6bc

0.fc.2.weight f4 [84, 120]
0.0033572027 -0.10759545 -0.041173127 -0.18080412 0.093413964 0.11039015 -0.132153 -0.27085823
0.04964781 0.12949386 -0.0014151284 -0.057947896 -0.010532643 0.004013111 0.020080058 -0.03355747
0.020865554 -0.017524688 -0.0027624904 0.36053678 -0.32459626 0.00461918 -0.041687816 0.064892694
-0.06930865 -0.027723785 -0.11554882 0.121688835 0.014374872 -0.07352449 -0.033434317 0.03729087
-0.026518527 -0.25955406 0.07981461 0.059925497 0.063812904 0.009555346 0.032722753 -0.021796506
0.02709724 0.10939951 0.023584185 0.10583331 -0.20276323 -0.14878865 0.03675297 0.12109576
-0.14307247 -0.17241041 0.069093205 -0.013863718 -0.0109472815 -0.19933333 -0.1515579 0.072754435
0.18059455 -0.1630329 0.12398084 0.09713179 -0.15946686 0.16576104 0.09659009 -0.17808746
0.13238966 -0.04665709 0.03988644 0.05113924 0.14926344 -0.007628133 -0.06398134 -0.1488088
-0.14706048 -0.11820619 0.053443313 -0.11045306 -0.026001163 0.0039444547 0.06584488 0.023582907
-0.20837574 0.10001463 0.13111332 0.13766226 0.016425507 0.106059425 0.01102764 0.03612392
0.15699865 0.026680455 0.004133002 -0.031639617 0.0594443 -0.04083983 0.10341068 0.072636835
0.02087032 0.07505107 0.13441184 -0.32938975 0.10502193 -0.0074771596 0.12836185 -0.0049725883
-0.15446417 0.08691494 0.030490605 0.08839037 0.09933781 0.059051193 0.02014279 -0.005016118
0.014783169 -0.08193039 -0.0700328 -0.010498074 -0.04829628 0.07995138 -0.07214472 0.038503893
-0.035308406 0.3911363 -0.0051767826 0.077065244 0.04418462 0.10899748 -0.00041642773 0.20874438
0.04826208 0.26295286 -0.0116874 -0.031343892 0.106164955 -0.008696827 0.13197479 -0.0023251886
0.013333351 0.006856277 -0.00634502 -0.2705366 0.22118482 -0.0006743504 -0.12019568 0.013139882
0.0066685923 0.025213273 -0.08225436 0.013427661 0.0038305365 0.27181703 0.047951553 0.022517573
0.10497182 -0.00600709 0.03468538 0.16350129 0.21397007 0.0053410693 0.019843737 0.1591199
0.0070092487 0.050020475 0.16042444 -0.015852481 -0.14020832 0.16109975 0.020861972 0.043606304
0.07629553 -0.18813352 0.10772038 -0.004852697 0.05449309 0.20885026 -0.23021077 0.020985713
-0.08533859 -0.37448445 -0.028764028 -0.04163692 0.23235455 0.061689343 0.120521784 0.110660404
0.11167827 0.03745151 -0.00052702124 -0.024489896 -0.028324816 -0.0007197219 0.0786961 0.091431044
-0.15104702 0.122219704 0.2125885 0.16966715 0.036279075 0.042644408 0.1528392 0.0039184
0.14713468 -0.18656439 -0.068757355 -0.10127935 -0.013807889 -0.0044156145 -0.018407915 -0.027793998
0.089632474 0.00679565 0.026632905 -0.16329424 0.021082742 -0.16629526 -0.06313755 0.12453064
-0.059325024 0.018185405 0.11899442 0.40698305 0.096178696 0.0017846168 -0.007513498 0.021563275
-0.29658222 -0.20391648 -0.030547503 0.07826537 0.01143505 -0.2313937 0.10889164 -0.0075557004
0.004192579 0.0037186719 0.051880594 -0.12392031 0.06734561 0.0026955516 -0.05661292 0.041649137
0.025075678 -0.4048476 -0.007521215 -0.14035927 0.031135589 0.0665679 0.16504896 -0.32908636
-0.120208494 0.0564044 -0.0021208238 -0.13948448 0.011511845 -0.0009439285 -0.047149744 -0.21578486
00000000: 8404 5c3b 015b dcbd 27a5 28bd b724 39be
00000010: d24f bf3d 3b14 e23d 1e53 07be eead 8abe
00000020: 815b 4b3d 0a9a 043e d47b b9ba c65a 6dbd
00000030: 1b91 2cbc 6a80 833b ef7e a43c 8f73 09bd
00000040: 3dee aa3c ef8f 8fbc e60a 35bb 4798 b83e
00000050: 7b31 a6be 7e5c 973b d8c0 2abd 76e6 843d
00000060: b2f1 8dbd fe1c e3bc dca4 ecbd ff37 f93d
00000070: 9584 6b3c 0294 96bd 6cf2 08bd 50be 183d
00000080: 623d d9bc 45e4 84be d875 a33d 7074 753d
00000090: 57b0 823d 078e 1c3c 4b08 063d 968e b2bc
000000a0: 08fb dd3c da0c e03d 9f33 c13c 22bf d83d
000000b0: 2aa1 4fbe 0d5c 18be 488a 163d 0e01 f83d
000000c0: 9781 12be 5b8c 30be bd80 8d3d a624 63bc
000000d0: 3a5c 33bc 091e 4cbe fe31 1bbe 4700 953d
000000e0: c7ed 383e 19f2 26be abe9 fd3d 08ed c63d
000000f0: 484b 23be 43bd 293e 06d1 c53d 8f5c 36be
00000100: 2891 073e 811b 3fbd f75f 233d 6177 513d
00000110: 84d8 183e 6bf5 f9bb a608 83bd 5661 18be
00000120: 0697 16be 1616 f2bd 60e7 5a3d 3735 e2bd
00000130: 6400 d5bc 7c40 813b aed9 863d f130 c13c
00000140: 7360 55be 78d4 cc3d 9242 063e 56f7 0c3e
00000150: c98e 863c af35 d93d 46ad 343c adf6 133d
00000160: 41c4 203e f890 da3c 226e 873b 8b98 01bd
00000170: de7b 733d aa47 27bd fbc8 d33d 9fc2 943d
00000180: 3cf8 aa3c 60b4 993d 42a3 093e c6a5 a8be
00000190: bd15 d73d f602 f5bb 4a71 033e 18f1 a2bb
000001a0: db2b 1ebe 7600 b23d 6fc7 f93c 0306 b53d
000001b0: 9f71 cb3d aadf 713d 7e02 a53c 3f5e a4bb
000001c0: 1b35 723c 1fcb a7bd 5b6d 8fbd 1d00 2cbc
000001d0: 52d2 45bd 8dbd a33d 9cc0 93bd 42b6 1d3d
000001e0: 8c9f 10bd 0443 c83e 00a2 a9bb 62d4 9d3d
000001f0: effa 343d 123a df3d fc53 dab9 16c1 553e
00000200: 75ae 453d c2a1 863e 827c 3fbc 7462 00bd
00000210: 036d d93d 237d 0ebc 6624 073e 3162 18bb
00000220: 2174 5a3c 9faa e03b e3e9 cfbb c683 8abe
00000230: 467e 623e e4c6 30ba 2729 f6bd a948 573c
00000240: 3584 da3b 118c ce3c f974 a8bd b1ff 5b3c
00000250: bd09 7b3b 9a2b 8b3e d968 443d c676 b83c
00000260: 77fb d63d 20d7 c4bb 4212 0e3d e26c 273e
00000270: f81a 5b3e 2304 af3b 558f a23c 54f0 223e
00000280: d7ad e53b 45e2 4c3d 4e46 243e 10dd 81bc
00000290: c592 0fbe 55f7 243e bae6 aa3c 869c 323d
000002a0: d540 9c3d 13a6 40be 819c dc3d 5f03 9fbb
000002b0: 2534 5f3d d8dc 553e 5fbc 6bbe 3bea ab3c
000002c0: 00c6 aebd 6dbc bfbe 8aa2 ebbc 7a8b 2abd
000002d0: 5aee 6d3e f7ad 7c3d 20d4 f63d eca1 e23d
000002e0: 94b7 e43d c166 193d cc27 0aba 099f c8bc
000002f0: 7209 e8bc b8ab 3cba 6c2b a13d 3340 bb3d
00000300: 12ac 1abe 534e fa3d cdb0 593e 3abd 2d3e
00000310: 5e99 143d e7ab 2e3d e181 1c3e ec65 803b
00000320: 79aa 163e bc0a 3fbe a8d0 8cbd 8c6b cfbd
00000330: 7c3a 62bc dcb0 90bb 32cc 96bc 3db0 e3bc
00000340: 3b91 b73d 0bae de3b 402d da3c 9b36 27be
00000350: b7b5 ac3c 4e49 2abe 434e 81bd ec09 ff3d
00000360: ccfe 72bd 8ff9 943c 59b3 f33d 1560 d03e
00000370: 56f9 c43d cee9 e93a ca33 f6bb 77a5 b03c
00000380: a0d9 97be 7bcf 50be c23e fabc 9849 a03d
00000390: 135a 3b3c 78f2 6cbe 9502 df3d cf95 f7bb
000003a0: e761 893b f6b4 733b bf80 543d eec9 fdbd
000003b0: 7fec 893d daa7 303b f3e2 67bd 4998 2a3d
000003c0: 826b cd3c 2f48 cfbe 8674 f6bb 57ba 0fbe
000003d0: 1010 ff3c c054 883d 9802 293e 027e a8be
000003e0: df2f f6bd 4d08 673d 85fd 0abb 05d5 0ebe
000003f0: 2d9c 3c3c f871 77ba 1720 41bd b5f6 5cbe

0.fc.2.bias f4 [84]
-0.09282403 0.08277741 0.06496068 -0.048953973 -0.06861018 0.17678681 0.024177693 -0.022429861
0.025909128 -0.021931171 -0.021517932 -0.11000767 -0.065772064 -0.036074407 0.19560944 -0.008703006
-0.028236983 0.098492965 -0.047531266 0.1739633 -0.02629149 -0.03772428 0.04364209 0.039764017
0.045307852 -0.015433117 -0.041581124 -0.05074185 -0.010325373 -0.003916739 0.064240955 -0.0357363
0.08529006 -0.016169619 0.042889915 -0.035362992 0.050885025 -0.05031163 0.032019198 -0.02714482
-0.060057905 -0.017251719 0.15968977 -0.01585372 -0.06957224 -0.17012712 0.19856657 0.07330718
-0.027124096 0.13297342 -0.09723182 -0.015355685 -0.02532859 0.1329414 -0.106069066 0.084241726
0.020251658 0.07219074 0.11428349 0.2028216 0.20895764 0.033303335 -0.094587296 -0.019102449
0.24292365 -0.012018232 0.20831488 -0.019423673 -0.053643506 -0.07771395 0.1126714 -0.0074458094
0.09363799 -0.022749903 0.05759952 -0.07767873 -0.01522832 -0.038861018 -0.017208684 -0.117298245
-0.027838068 -0.017747097 0.10974467 0.04274504
00000000: 861a bebd 3487 a93d 1b0a 853d f683 48bd
00000010: 7e83 8cbd 9a07 353e 4c10 c63c d4be b7bc
00000020: 613f d43c 00a9 b3bc 6046 b0bc b44b e1bd
00000030: 81b3 86bd c2c2 13bd d74d 483e 0e97 0ebc
00000040: 3f51 e7bc aeb6 c93d 25b0 42bd 6f23 323e
00000050: 4061 d7bc c684 1abd 0cc2 323d 98df 223d
00000060: ba94 393d 2fdb 7cbc f850 2abd b0d6 4fbd
00000070: c12b 29bc fd57 80bb c390 833d 3a60 12bd
00000080: 8eac ae3d 2676 84bc 56ad 2f3d c9d8 10bd
00000090: d16c 503d 9113 4ebd 9026 033d d05e debc
000000a0: 47ff 75bd 7a53 8dbc b785 233e a9df 81bc
000000b0: e47b 8ebd ce35 2ebe 0955 4b3e 1322 963d
000000c0: 5a33 debc 2f2a 083e 7a21 c7bd 6996 7bbc
000000d0: e77d cfbc ca21 083e bd3a d9bd ed86 ac3d
000000e0: cee6 a53c bdd8 933d 760d ea3d 77b0 4f3e
000000f0: fef8 553e 1469 083d fcb6 c1bd bd7c 9cbc
00000100: fac0 783e 1ee8 44bc 7f50 553e 651e 9fbc
00000110: 4bb9 5bbd 7e28 9fbd 43c0 e63d fafb f3bb
00000120: 46c5 bf3d 015e babc 79ed 6b3d 0716 9fbd
00000130: 3480 79bc bb2c 1fbd 3af9 8cbc 103a f0bd
00000140: a90c e4bc 5c62 91bc d0c1 e03d 6c15 2f3d

0.fc.4.weight f4 [64, 84]
0.01958597 0.21278563 -0.38685474 -0.04840807 0.07474237 -0.36176732 0.18357041 0.012947859
0.007337377 0.021372959 -0.0075146 -0.048625134 0.10897996 0.0054954886 -0.23345536 0.1154052
0.033608682 -0.38494 -0.110900044 0.16674207 -0.0017172606 -0.040624212 0.20906189 0.101615705
-0.02528883 0.010444786 0.039788887 -0.18511167 0.019339833 -0.011000601 0.033012316 -0.26004934
0.17434043 -0.0048995935 -0.10751615 0.050652985 -0.083591715 -0.013916534 0.09369937 0.009333577
0.16859642 -0.089704424 0.020889334 -0.009803051 -0.01157514 0.0055300063 0.1860797 0.24120635
-0.0029620638 -0.16441253 -0.104102395 -0.008866218 0.020078352 -0.005419329 0.041954085 -0.13359474
-0.13235335 -0.14430326 0.060868002 0.0632079 -0.0019219952 -0.082319945 -0.062123407 0.023909338
0.360329 -0.035422992 -0.04041579 0.02095043 -0.068236254 -0.15419744 -0.27633435 -0.011380039
-0.089684285 0.004913509 -0.27682737 -0.090114996 -0.005484594 0.01024915 0.030646138 0.027686825
-0.037305236 -0.0020974972 -0.34065223 0.03091835 -0.10725882 0.02167913 0.16528034 -0.032310423
0.0669012 0.046247162 0.003682704 0.017984305 0.120982416 0.1242739 0.041998923 -0.02020644
-0.06498534 -0.011663104 0.058757775 0.036611002 0.1633441 0.12767278 -0.032950018 -0.020157963
-0.01339263 -0.010011594 0.08539444 0.120736524 -0.07019137 -0.010685632 0.19367245 0.053547386
0.16258068 0.0022343185 0.12082183 0.019827966 -0.15056336 -0.008449562 0.007860726 -0.07261939
0.2764731 -0.09129511 -0.098630816 -0.003720372 -0.13327748 -0.0021136089 0.07167535 0.010500828
-0.02281331 -0.07281961 -0.17427358 0.063345514 -0.019389324 0.08966819 -0.001308818 0.009468227
0.015676547 0.14219034 0.009103573 -0.16118099 0.007218852 -0.00076758885 0.13899882 -0.011659334
-0.06852816 0.25528666 0.042437647 0.18671487 -0.22337553 0.00761954 -0.07095148 0.018963877
0.04933208 -0.014453972 0.039896723 0.0032808103 0.18420857 0.0071170055 0.07910812 0.008323379
0.02959743 -0.04256793 -0.01499103 -0.0090178605 0.037013415 0.02073154 0.08117551 0.06686371
0.0863863 -0.24240518 -0.20503834 -0.10062801 -0.05918736 -0.049457714 -0.16192809 0.015316163
-0.18117897 -0.2658839 -0.003490441 -0.03097763 0.035238724 -0.010518926 -0.08416305 -0.16812113
-0.23955685 -0.16081671 -0.0789042 0.1520617 -0.0040887306 -0.009769547 -0.23142043 -0.28347453
0.002588152 0.0077284877 -0.32968363 -0.05620456 -0.2920133 -0.008161871 -0.1953167 -0.054884046
0.082457185 0.0067383377 -0.0038297782 0.01261809 -0.21910922 0.06087615 0.09013595 0.017350327
0.09209363 -0.06389961 -0.13561767 0.0013678971 0.012103682 -0.029429782 0.15903616 -0.2712851
-5.960414e-05 -0.106860004 -0.051611323 -0.03551771 0.009316661 -0.10189164 -0.025751596 0.17052661
-0.075763315 -0.093770675 -0.19865069 0.08100534 -0.04891973 -0.31367028 -0.046530746 -0.30716977
0.158664 0.00025498803 0.33709416 0.0049403063 -0.057878807 -0.05317128 -0.08086106 0.012849814
-0.25903642 -0.014773313 -0.13123721 0.0007655853 -0.010098287 0.019236984 0.026870234 -0.03391286
-0.009954479 -0.024894765 -0.116086714 -0.09298747 0.09266839 -0.079308204 0.014772734 -0.02289238
00000000: c272 a03c 7ae4 593e d311 c6be 8a47 46bd
00000010: 8712 993d 9139 b9be e2f9 3b3e 4223 543c
00000020: 616e f03b 5816 af3c 093d f6bb 262b 47bd
00000030: e330 df3d 8013 b43b ec0e 6fbe 9059 ec3d
00000040: 42a9 093d db16 c5be 901f e3bd 6fbe 2a3e
00000050: b415 e1ba 9365 26bd 5214 563e e51b d03d
00000060: 852a cfbc 9c20 2b3c acf9 223d ea8d 3dbe
00000070: 926e 9e3c dd3b 34bc ec37 073d 3025 85be
00000080: 4c86 323e c58c a0bb 6d31 dcbd 8179 4f3d
00000090: 2232 abbd 2d02 64bc 75e5 bf3d dceb 183c
000000a0: 8aa4 2c3e f4b6 b7bd 1c20 ab3c fa9c 20bc
000000b0: a8a5 3dbc 0e35 b53b ad8b 3e3e ccfe 763e
000000c0: 2f1f 42bb c25b 28be a333 d5bd 9d43 11bc
000000d0: 5b7b a43c a094 b1bb 0cd8 2b3d 0fcd 08be
000000e0: a387 07be 3cc4 13be ba50 793d 2573 813d
000000f0: 75eb fbba 5c97 a8bd 1d75 7ebd 84dd c33c
00000100: 0b7d b83e b317 11bd 078b 25bd 3ca0 ab3c
00000110: 73bf 8bbd efe5 1dbe b27b 8dbe 5873 3abc
00000120: 65ac b7bd 8001 a13b 51bc 8dbe 368e b8bd
00000130: 1cb8 b3bb 0dec 273c 9c0d fb3c 7bcf e23c
00000140: 60cd 18bd 2a76 09bb f869 aebe 7b48 fd3c
00000150: 83aa dbbd 6e98 b13c 403f 293e ef57 04bd
00000160: 7f03 893d aa6d 3d3d 8559 713b d253 933c
00000170: a1c5 f73d 5183 fe3d 1007 2c3d fa87 a5bc
00000180: 0917 85bd 9b16 3fbc feab 703d 6bf5 153d
00000190: ad43 273e a7bc 023e 99f6 06bd 5022 a5bc
000001a0: c36c 5bbc ab07 24bc 48e3 ae3d b644 f73d
000001b0: 7ec0 8fbd ca12 2fbc 1252 463e 8154 5b3d
000001c0: 8d7b 263e a56d 123b 7071 f73d 426e a23c
000001d0: 482d 1abe 0870 0abc 46ca 003c 7ab9 94bd
000001e0: e28d 8d3e eef8 babd f4fe c9bd 7cd1 73bb
000001f0: e479 08be 7984 0abb 87ca 923d aa0b 2c3c
00000200: fbe2 babc 7322 95bd c674 32be 4bbb 813d
00000210: 5cd6 9ebc f5a3 b73d a58c abba 9f20 1b3c
00000220: 1a6c 803c 589a 113e 2727 153c a10c 25be
00000230: 1f8c ec3b 0438 49ba b555 0e3e cb06 3fbc
00000240: 7e58 8cbd efb4 823e 19d3 2d3d 2f32 3f3e
00000250: 8ebc 64be 56ad f93b 024f 91bd 225a 9b3c
00000260: 6f10 4a3d 5ad0 6cbc bf6a 233d dd02 573b
00000270: 2ca1 3c3e c535 e93b 7003 a23d c85e 083c
00000280: 4f76 f23c b65b 2ebd f09c 75bc a6bf 13bc
00000290: 619b 173d 31d5 a93c 593f a63d d7ef 883d
000002a0: 4deb b03d 1039 78be 92f5 51be 0f16 cebd
000002b0: 726e 72bd 2c94 4abd 7ad0 25be a5f0 7a3c
000002c0: fb86 39be ef21 88be e2bf 64bb ccc4 fdbc
000002d0: 7b56 103d 9357 2cbc ad5d acbd f227 2cbe
000002e0: 644e 75be 23ad 24be 8698 a1bd 10b6 1b3e
000002f0: c2fa 85bb 7310 20bc 7af9 6cbe 9323 91be
00000300: fc9d 293b 413f fd3b 4bcc a8be c136 66bd
00000310: c482 95be 5eb9 05bc 1a01 48be 18ce 60bd
00000320: 50df a83d 46cd dc3b 04fd 7abb 1bbc 4e3c
00000330: 2b5e 60be 4559 793d 3299 b83d 4622 8e3c
00000340: 969b bc3d ccdd 82bd 5cdf 0abe 034b b33a
00000350: 864e 463c ba16 f1bc 60da 223e e1e5 8abe
00000360: 75ff 79b8 6bd9 dabd 6566 53bd 057b 11bd
00000370: e9a4 183c 90ac d0bd 03f5 d2bc 879e 2e3e
00000380: cc29 9bbd d70a c0bd 166b 4bbe 21e6 a53d
00000390: 0e60 48bd 6499 a0be 0697 3ebd 5b45 9dbe
000003a0: d178 223e eaaf 8539 9b97 ac3e 4be2 a13b
000003b0: 5412 6dbd 21ca 59bd 7c9a a5bd 0788 523c
000003c0: 6ca0 84be c40b 72bc 0c63 06be 8fb1 483a
000003d0: 4973 25bc e196 9d3c f71e dc3c 36e8 0abd
000003e0: 1c18 23bc 1bf0 cbbc dfbe edbd 3770 bebd
000003f0: edc8 bd3d 576c a2bd 5609 723c cd88 bbbc

0.fc.4.bias f4 [64]
0.049036156 -0.013433684 0.010551544 5.8635283e-05 -0.05475127 -0.14708593 0.2509946 -0.21242382
-0.09472659 -0.16202797 0.120193936 0.14003612 0.048616827 0.07399676 0.027817715 0.14711273
0.020726645 0.06284524 -0.25273573 0.016574297 -0.053577032 0.14123134 -0.059177212 -0.007066427
0.06929811 -0.09692403 -0.035475045 -0.14779589 0.12573567 0.21828058 -0.013688052 0.078995615
0.1620043 -0.056274686 -0.14440073 -0.03291249 -0.09840331 0.29791793 0.19880818 -0.30890486
-0.09411841 0.09991361 0.033400577 0.11276456 -0.05587385 -0.041039765 -0.2708629 -0.20616932
-0.26297766 0.046293862 -0.14765097 -0.2515056 -0.19036846 0.17391367 0.1301486 -0.107264295
0.0070346924 -0.28356868 -0.114139125 -0.0698334 -0.02053224 0.21755455 0.26210415 -0.04486433
00000000: 23da 483d f418 5cbc 62e0 2c3c 28ef 7538
00000010: de42 60bd b29d 16be 5d82 803e a185 59be
00000020: 0400 c2bd a9ea 25be 3d28 f63d a165 0f3e
00000030: 7022 473d 9d8b 973d fae1 e33c b8a4 163e
00000040: edca a93c 01b5 803d 9466 81be d2c6 873c
00000050: 9773 5bbd f39e 103e ce63 72bd 7c8d e7bb
00000060: 2bec 8d3d 1b80 c6bd 484e 11bd ce57 17be
00000070: dac0 003e f284 5f3e da43 60bc 74c8 a13d
00000080: 75e4 253e 4980 66bd c9dd 13be 3fcf 06bd
00000090: ad87 c9bd b388 983e 5f94 4b3e c728 9ebe
000000a0: 27c1 c0bd 829f cc3d 0bcf 083d 1bf1 e63d
000000b0: fadb 64bd 5019 28bd 8bae 8abe 0d1e 53be
000000c0: 02a5 86be a29e 3d3d d131 17be 58c5 80be
000000d0: f3ef 42be 6d16 323e ad45 053e 62ad dbbd
000000e0: 4783 e63b ea2f 91be c6c1 e9bd d004 8fbd
000000f0: 3a33 a8bc 9fc6 5e3e 8432 863e a9c3 37bd

1.fc.weight f4 [10, 64]
0.11422981 0.016211396 -0.029203035 0.012786005 0.07170806 -0.07033123 0.21101072 0.011714782
0.014616094 -0.048315406 0.0047915834 0.04950327 0.02967701 -0.022128366 -0.114423014 0.036039576
-0.09443864 0.012519575 -0.27056342 -0.013254112 -0.011526936 0.04928649 0.011296339 -0.025043674
-0.033996608 0.007470819 0.009128158 -0.23648453 0.11164238 0.0979805 0.0841508 -0.030104896
0.043687575 -0.013155974 -0.041782044 0.0064002005 0.019906035 0.2706353 0.10061287 -0.46780056
0.019066593 0.16942686 -0.0012438421 0.05887448 -0.16929856 0.011552458 -0.28360394 -0.13457797
-0.2086497 -0.047009345 -0.06262033 -0.13849452 -0.040653005 0.0070072277 -0.022093145 -0.010754805
0.023767933 -0.24297655 -0.041998938 -0.080944374 -0.021614142 0.25153884 0.2502289 -0.006111893
0.013417455 -0.104590796 0.22159916 0.21987812 0.08165364 0.042723503 -0.049850512 -0.05202767
-0.12602518 0.27796888 -0.013883389 0.026563225 -0.3118705 0.085121155 -0.02771295 -0.28260994
0.059901845 0.115287 -0.0028176864 0.1630658 0.30093247 0.027091347 0.00027154502 0.13883391
-0.05193359 -0.0750849 -0.030102499 -0.04715226 -0.011272523 0.034806613 -0.072325476 0.026304273
-0.020062223 0.033944383 0.19996077 -0.15736087 -0.058947165 -0.06109503 -0.033799104 0.028825792
-0.15306678 -0.010233236 -0.24785163 -0.09514172 -0.0073285 0.04594595 0.02417118 0.028216304
-0.031378996 0.1221325 0.27763504 0.016275544 -0.07779947 -0.002527912 0.031888016 -0.02233716
-0.17366835 0.022514183 -0.05497205 -0.017469281 0.12519085 0.027408889 -0.04706062 0.059409983
-0.10632869 -0.07690008 -0.0029304686 -0.016761072 -0.075665936 0.06951119 0.026822466 -0.18359411
-0.0059116925 0.009434189 0.08260085 -0.04649859 -0.0075072097 0.18752459 0.048356052 0.038538236
-0.11331862 0.14023696 -0.03711958 0.12491565 0.05906034 -0.10365095 0.055545457 0.107504316
0.2004842 -0.14217582 0.14706501 0.011282126 -0.018552015 -0.11156787 -0.13450144 -0.08810972
-0.12755993 0.15823758 -0.04259463 -0.036331136 0.10721717 -0.021727834 -0.099122174 -0.06357274
0.046967372 0.09658213 -0.0869819 0.22271463 -0.0033742858 -0.096898325 0.012296246 0.0798543
0.053225648 0.14429072 -0.07380101 0.08882914 -0.3133197 0.21222618 0.10210277 0.11642982
0.07774036 0.039602377 0.15229408 -0.3167939 -0.1094914 -0.043215763 0.0054132827 -0.13876726
0.08726625 -0.09768328 0.1781808 0.02392079 -0.12321727 -0.007902126 -0.049909353 -0.055164948
-0.23150764 -0.057470147 0.17372619 -0.09786678 -0.012504904 -0.08966913 0.0759987 0.010264757
-0.19176215 -0.06374164 0.04703623 -0.08342497 0.017718663 0.14787196 0.10838612 -0.06355566
0.0004990986 -0.023522103 0.12090557 0.04388566 -0.022874415 -0.01595678 0.13927583 -0.12468709
0.058883723 -0.06622496 0.06662566 -0.1323065 0.1297995 0.019080386 0.09796708 0.000570303
-0.10045594 -0.070650935 0.008046264 0.19214208 0.02220819 -0.09452041 0.00459588 0.0607015
-0.12165759 -0.10765426 0.018914083 -0.03641152 0.020704629 0.16050504 0.09710255 0.08281173
-0.057969257 -0.004704321 -0.044141922 0.106048636 0.05647437 -0.04770751 -0.038711324 -0.16559218
00000000: 52f1 e93d c3cd 843c 343b efbc 647c 513c
00000010: addb 923d d209 90bd 3213 583e 5bef 3f3c
00000020: 5778 6f3c 60e6 45bd b702 9d3b f1c3 4a3d
00000030: 331d f33c 8c46 b5bc 9d56 eabd 3c9e 133d
00000040: 0c69 c1bd e71e 4d3c 4a87 8abe c627 59bc
00000050: 79db 3cbc a1e0 493d 4814 393c 6428 cdbc
00000060: 0740 0bbd c6cd f43b 458e 153c 0029 72be
00000070: c3a4 e43d 00aa c83d 4157 ac3d 8b9e f6bc
00000080: bef1 323d 288c 57bc a623 2bbd c6b8 d13b
00000090: fb11 a33c b690 8a3e 1f0e ce3d 8e83 efbe
000000a0: 8b31 9c3c 3c7e 2d3e 6a08 a3ba 5e26 713d
000000b0: 9a5c 2dbe 8546 3d3c 8934 91be cfce 09be
000000c0: 44a8 55be df8c 40bd 163f 80bd 82d1 0dbe
000000d0: c483 26bd e39c e53b affc b4bc ec34 30bc
000000e0: f8b4 c23c d8ce 78be 1407 2cbd 2ac6 a5bd
000000f0: 2410 b1bc b3c9 803e 011e 803e 4646 c8bb
00000100: e3d4 5b3c b333 d6bd e4ea 623e bb27 613e
00000110: 063a a73d d7fe 2e3d 0d30 4cbd f71a 55bd
00000120: bf0c 01be f051 8e3e 2777 63bc 1f9b d93c
00000130: 7dad 9fbe 0054 ae3d 4506 e3bc 40b2 90be
00000140: a35b 753d 971b ec3d efa8 38bb b9fa 263e
00000150: d213 9a3e acee dd3c 285e 8e39 7a2a 0e3e
00000160: 51b8 54bd 1dc6 99bd 8499 f6bc ba22 41bd
00000170: 63b0 38bc 6191 0e3d 611f 94bd 0f7c d73c
00000180: 8859 a4bc 4409 0b3d 84c2 4c3e 3523 21be
00000190: 9572 71bd c83e 7abd ee70 0abd 1124 ec3c
000001a0: 8abd 1cbe 4da9 27bc d1cc 7dbe a9d9 c2bd
000001b0: ea23 f0bb d231 3c3d a302 c63c e125 e73c
000001c0: 4387 00bd 9b20 fa3d 2e26 8e3e 4a54 853c
000001d0: 5455 9fbd 53ab 25bb 029d 023d 6bfc b6bc
000001e0: 1ed6 31be aa6f b83c 5f2a 61bd bd1b 8fbc
000001f0: 0832 003e 9b88 e03c a3c2 40bd e257 733d
00000200: dbc2 d9bd ca7d 9dbd 1b0d 40bb 844e 89bc
00000210: bef6 9abd e25b 8e3d caba db3c 1800 3cbe
00000220: dfb6 c1bb db91 1a3c a22a a93d 4e75 3ebd
00000230: 0aff f5bb 7206 403e ff10 463d 45da 1d3d
00000240: 9813 e8bd 479a 0f3e b30a 18bd c7d3 ff3d
00000250: 41e9 713d f346 d4bd a283 633d 392b dc3d
00000260: bb4b 4d3e 8a96 11be 3698 163e abd8 383c
00000270: 65fa 97bc b27d e4bd bfba 09be de72 b4bd
00000280: 129f 02be 0809 223e b577 2ebd f5cf 14bd
00000290: ad94 db3d 92fe b1bc 9100 cbbd 6d32 82bd
000002a0: dc60 403d dacc c53d 9123 b2bd 4e0f 643e
000002b0: 1f23 5dbb a172 c6bd 3276 493c a78a a33d
000002c0: 2303 5a3d f2c0 133e fc24 97bd 0dec b53d
000002d0: 716b a0be d251 593e 421b d13d c272 ee3d
000002e0: 5636 9f3d 1a36 223d fbf2 1b3e cf32 a2be
000002f0: 073d e0bd 0303 31bd e861 b13b 0119 0ebe
00000300: a6b8 b23d 2c0e c8bd 0775 363e 88f5 c33c
00000310: 5659 fcbd eb77 01bc c06d 4cbd a4f4 61bd
00000320: 5710 6dbe d165 6bbd 47e5 313e 616e c8bd
00000330: 5ee1 4cbc 73a4 b7bd 35a5 9b3d 832d 283c
00000340: 4c5d 44be fa8a 82bd 10a9 403d b6da aabd
00000350: bb26 913c bf6b 173e 8bf9 dd3d 7829 82bd
00000360: f1d5 023a 6db1 c0bc 579d f73d 73c1 333d
00000370: 2063 bbbc cbb7 82bc 539e 0e3e f25b ffbd
00000380: 0f30 713d f4a0 87bd 0973 883d 5b7b 07be
00000390: 29ea 043e 784e 9c3c f7a2 c83d 6380 153a
000003a0: d8bb cdbd 70b1 90bd 7ad4 033c e5c0 443e
000003b0: f3ed b53c eb93 c1bd 0999 963b 23a2 783d
000003c0: 9d27 f9bd d679 dcbd b5f1 9a3c 3f24 15bd
000003d0: c19c a93c 6f5b 243e b4dd c63d 3299 a93d
000003e0: 2c71 6dbd b426 9abb 29ce 34bd 0730 d93d
000003f0: ab51 673d f368 43bd c48f 1ebd ff90 29be

1.fc.bias f4 [10]
0.17985503 0.03640694 0.038510293 -0.1902493 -0.08719372 -0.033064757 -0.16101545 0.04592677
0.18568769 0.11948373
00000000: eb2b 383e 721f 153d f8bc 1d3d b6d0 42be
00000010: 9f92 b2bd e96e 07bd 3ce1 24be b51d 3c3d
00000020: ea24 3e3e e3b3 f43d
